script/save/save.pt (torch, 608141 bytes, 73 tensors)

gatebias f4 [32]
000000 d6 47 5d 3f c4 a9 4f 3f 32 6e 81 3e b7 71 61 3f
       0.8643774 0.81118417 0.25279385 0.8806414
000010 06 ab b8 3e 3f c3 88 3e de 32 ac 3e ec 49 37 3f
       0.3606798 0.2671146 0.3363256 0.7159717
000020 c2 a6 61 3f 4f 2a 9a 3e 91 0a b2 3d bb cc 62 3f
       0.8814508 0.30110404 0.08693422 0.88593644
000030 65 f9 38 3f cc d6 46 3e 8d 7a 3d 3f c0 f7 97 3e
       0.72255546 0.19417876 0.7401512 0.29681206
000040 f3 f6 79 3e 0d d2 58 3f 5d b5 55 3f ed 38 49 3d
       0.2441061 0.8469551 0.83479863 0.049126554
000050 f0 63 57 3e 83 ef 11 3f 81 d4 0f 3f d1 7c 7b 3f
       0.21034217 0.5700609 0.5618363 0.9823733
000060 3e a5 7f 3e 03 63 46 3f a0 3c 04 3e fd 64 40 3f
       0.24965379 0.7749483 0.12913752 0.75154096
000070 b2 89 cd 3e 66 9f 9a 3e 1f a3 2a 3f b8 a9 31 3e
       0.40144116 0.30199736 0.66655153 0.17349899

weight f4 [32, 53]
000000 0e 07 99 3c 8c e9 9c bd 1b 27 a5 3d 70 f0 59 3d
       0.018680122 -0.07661733 0.080640994 0.053207815
000010 52 77 81 be a7 fe 36 bd ba 4f 97 3e 94 c1 e6 3d
       -0.25286347 -0.04467645 0.29553014 0.11267391
000020 29 e5 e4 3e 38 4d 9c be 05 a6 11 bd 36 94 bb bd
       0.44706085 -0.30527663 -0.03555872 -0.09159128
000030 5c 1b cb 3d b6 99 5a 3d 4e 69 39 3e 96 43 84 bd
       0.09917328 0.053369246 0.18106577 -0.064582035
000040 2a 96 11 be aa 9c fe bc 7b 7b 77 be b4 b8 cd bd
       -0.1421744 -0.031080563 -0.24168198 -0.10044995
000050 17 f6 35 bd 10 d1 b4 3d 7d 81 41 be 57 8e 62 be
       -0.044424143 0.08828938 -0.18897052 -0.22124611
000060 33 63 0a 3c 4e 2f 11 3e fd 2d 05 3d 38 7a 67 3e
       0.0084465025 0.14178202 0.03251456 0.22605217
000070 7d ec 6f be e1 25 1d 3e 15 18 2a be 60 ad 0e 3e
       -0.23430057 0.15346481 -0.16610749 0.13933325
000080 24 16 28 be d3 86 32 3d fe ff 58 bd b6 e6 2e 3e
       -0.16414696 0.04358561 -0.05297851 0.17080197
000090 db d1 41 3c 75 09 cf 3c d5 16 d4 bb e2 b1 ba 3e
       0.011829819 0.025273064 -0.0064724484 0.3646384
0000a0 68 7b 9f be 5c 2d 88 3c f1 ac 45 be 61 df af bd
       -0.3114884 0.016623192 -0.19304253 -0.08587528
0000b0 01 7f 93 bd 1b 71 2b 3e bf 18 72 bd 75 53 bc bc
       -0.072019584 0.16742365 -0.05910563 -0.022989014
0000c0 87 57 63 ba 12 44 f6 3d b5 9f 09 3e 27 83 1b 3e
       -0.00086724054 0.12024702 0.1343983 0.1518675
0000d0 a9 c7 26 3d bc a8 32 be c3 ae c7 3d 80 cc 0f bd
       0.040717755 -0.1744718 0.0975013 -0.035107136
0000e0 fa 59 67 be 12 ad 4c bd a0 47 19 3e 15 62 68 3e
       -0.22592917 -0.04996974 0.14968729 0.22693665
0000f0 71 cd 76 3e 4c 2f 41 3e 24 db 07 be c9 0b c0 bd
       0.24101807 0.18865699 -0.1326719 -0.09377248
000100 9b 7f a2 be e4 26 35 be 1d f6 4c bd 89 5a 76 be
       -0.3173798 -0.17690617 -0.0500394 -0.24057974
000110 75 37 ef 3c cb 0f 60 be 3a 5b a9 3c 72 38 ee bd
       0.029201249 -0.21881025 0.020673383 -0.1163186
000120 00 4b 45 be f8 df 66 bd c6 7f c1 3c 94 1e 85 be
       -0.19266891 -0.056365937 0.023620497 -0.25999892
000130 e5 2d 72 3e 00 98 1a bd e7 51 22 3e 2f c9 72 3d
       0.2365032 -0.037742615 0.15851556 0.059273895
000140 c5 c4 c9 be 75 ab b8 bd 71 8a 2c 3d 63 5c ba 3d
       -0.39407936 -0.09017078 0.042124216 0.090996526
000150 c2 18 5d bd 99 5b d7 3d d4 ff 46 3d 6f 62 5f be
       -0.05397869 0.10515518 0.04858382 -0.21814893
000160 3e 93 51 3e ea ab bd 3c 0a 99 1a 3e e2 1f 82 3d
       0.20466325 0.023153264 0.15097442 0.063537374
000170 17 1e 5e 3d 2a 32 95 bb dd 7b 1b 3e a0 c2 c3 be
       0.054227915 -0.004553099 0.15183969 -0.38234425
000180 b7 10 92 bc fe 4b 93 3c 0c a8 0f 3e 0a 08 15 be
       -0.017830236 0.017980572 0.14028949 -0.14553848
000190 e2 54 2d 3e 2c 81 b9 3d 40 fb 9e 3e 87 6d 58 be
       0.16926911 0.09057841 0.31051064 -0.21135531
0001a0 52 35 4b 3c bd ef b6 bd d7 8a db bd d3 35 8f bd
       0.012402849 -0.08932445 -0.10719841 -0.06992688
0001b0 46 92 53 3d 13 9c 0b be c6 1a 29 be f9 b7 2a be
       0.05165317 -0.13633756 -0.1651412 -0.16671742
0001c0 f4 19 bc bd 9f 32 ba bd c3 25 7b be de a2 0e be
       -0.09184638 -0.090916865 -0.24526124 -0.13929316
0001d0 95 26 1f 3e d8 ee 15 bd 8a d9 06 be c4 f5 ba 3d
       0.15542062 -0.036604732 -0.13168922 0.09128907
0001e0 a4 04 5a be 9f 50 82 bd 35 cd da 3c f5 ee 85 be
       -0.21290833 -0.063630335 0.026709178 -0.26158872
0001f0 7a 25 65 bd 04 98 ca be 5f 5e eb 3d ba f4 0e bc
       -0.055943944 -0.39569104 0.11492609 -0.00872534
000200 02 af 90 3d 01 7b a7 3c 57 72 fa 3c 60 70 87 be
       0.0706463 0.020444395 0.0305721 -0.26452923
000210 f7 25 16 bd 58 52 48 be 42 45 05 3d 9c 4f 71 be
       -0.0366573 -0.19562662 0.032536753 -0.23565525
000220 7f 39 14 3e e0 b8 c6 3d 66 dd 46 be f0 36 40 3d
       0.14475058 0.09703231 -0.19420394 0.046927392
000230 96 83 6c be 61 86 be bd ab 09 44 be 1b 55 15 3e
       -0.23097071 -0.093029745 -0.19144313 0.14583246
000240 c1 67 2c bd 40 e9 74 3c 94 95 35 3e bb 60 9d bd
       -0.042091135 0.014948189 0.17732841 -0.076844655
000250 18 a6 2c 3e be ea c4 bd 52 55 2d 3d a8 fb a1 3d
       0.16860235 -0.09615086 0.042317696 0.07909328
000260 fc b2 7b be a4 b0 ea 3e 86 db 57 bd 17 e7 85 bc
       -0.24579996 0.4583789 -0.05269959 -0.016345544
000270 0e 27 6b bc 89 ab 15 3e 77 a1 b6 3c 08 cf 4f bd
       -0.014352573 0.14616217 0.02229379 -0.05073455
000280 af 60 59 be 43 47 ac 3e 10 21 52 3d 70 fb a4 3d
       -0.21228288 0.33648118 0.051301062 0.080557704
000290 82 ba b6 3e d0 f6 d8 bd b3 1e 35 be 56 7e a7 3d
       0.3568917 -0.10593951 -0.17687492 0.081783935
0002a0 15 84 51 3e 43 c9 98 be e2 cc 15 3e 6a 7c 03 be
       0.20460542 -0.2984105 0.14628938 -0.12840429
0002b0 2c c9 95 3c cb cd bc 3d cf ce 13 3e 59 da 0c 3c
       0.018284403 0.092189394 0.1443436 0.00859698
0002c0 a5 8e 55 3c 80 06 46 be fa 1f e2 3d 7f f3 4c be
       0.013034497 -0.19338417 0.11041255 -0.20014761
0002d0 ce 6d 46 be 8c ba 14 3e bd 92 22 3c f8 ea f3 3e
       -0.19377825 0.14524287 0.00992268 0.47640204
0002e0 35 2e 61 3e 5a 9c cc bd b5 ae 8f 3e 65 a8 b4 3d
       0.21990283 -0.09990759 0.28062978 0.08821181
0002f0 5e 13 09 be 70 1a 6d bd cb 9d a7 bd 91 2c 01 3e
       -0.13386294 -0.05788654 -0.081843935 0.12614657
000300 67 1f 69 3d f1 65 1c be b6 7f a9 3e 85 25 a6 3a
       0.056914713 -0.15273263 0.33105248 0.0012675977
000310 81 be 18 be 63 65 12 bd f9 32 24 3e a5 eb 00 be
       -0.14916421 -0.03574122 0.1603507 -0.12589891
000320 32 51 49 be 0a 00 ad be 31 a1 bf 3e 0b 7f 7e bb
       -0.1965988 -0.33789092 0.37427667 -0.0038833048
000330 53 0b 4f be c2 66 91 bd 69 32 f0 3d 91 0e 7c 3d
       -0.20219164 -0.070996776 0.11728365 0.06153733
000340 ec ad 96 bd 83 25 76 3e 78 a4 b3 bd bb 75 77 be
       -0.07357392 0.24037747 -0.08771604 -0.24166004
000350 a2 e4 e4 bd e0 e4 62 bd 68 2f 04 bd af ca ab 3e
       -0.11176421 -0.055394053 -0.032271773 0.33553073
000360 33 ce 63 3d 47 bc 49 bd 45 77 f1 bd 1a ff e6 3d
       0.05561657 -0.04925182 -0.11790327 0.112791255
000370 d1 52 14 be 55 89 69 bd 11 67 5e be a6 cc 19 3e
       -0.14484717 -0.057015736 -0.21719004 0.15019473
000380 7c b0 4f 3d cf 0b b8 3d 4c 69 b6 3d b9 79 3e 3d
       0.050705418 0.08986627 0.089068025 0.046502803
000390 0a 47 46 3d b1 42 17 3e fd a7 f2 bd 5b 3d 89 3d
       0.048407592 0.14771535 -0.118484475 0.06701156
0003a0 b3 81 07 3e 18 8d 1b bb 95 c2 ee 3d c8 3c 91 3d
       0.1323307 -0.0023735221 0.11658207 0.07091671
0003b0 00 6c 09 3c 6a 39 63 be b4 d4 1e 3e 68 de 10 3e
       0.008387566 -0.2218987 0.15510827 0.14147341
0003c0 a7 e0 0d 3e af ad 6f bd 3b bb 81 3e 64 28 85 3d
       0.1385523 -0.058515247 0.25338158 0.065018445
0003d0 c2 dd 20 3b 8b 16 98 be 7d 5b 88 be 0b 1f 49 3e
       0.002454624 -0.297047 -0.266323 0.19640748
0003e0 90 b0 16 3e 87 b8 16 be b1 9e 2b bc 9c f0 35 bd
       0.14715791 -0.14718829 -0.010474847 -0.044418916
0003f0 6c 78 16 be 0d ff f2 be 2c 36 60 3e d8 f6 b9 bd
       -0.14694375 -0.47460213 0.21895665 -0.09080285

bias f4 [32]
000000 d4 97 c0 3c 3c cd 81 3c 95 79 d0 3d a0 a6 9e 3d
       0.023509897 0.015844934 0.1017944 0.07746625
000010 14 e2 e0 bd a2 c9 38 bd 1b b7 a0 bd 72 c5 e3 3d
       -0.10980621 -0.045114167 -0.078474246 0.11121644
000020 8b 7d 8e bd b6 ef 87 bd 14 79 26 3c d9 8c c4 bd
       -0.06957539 -0.06637518 0.010160703 -0.09597177
000030 1f d5 eb bd 04 6f e0 3b 13 4a 16 be 91 6f c1 bd
       -0.11515259 0.0068491716 -0.14676695 -0.09445108
000040 d3 9a 13 bc 06 60 0c 3e 90 f3 45 bd 08 94 d8 bd
       -0.009009081 0.13708505 -0.048327982 -0.1057511
000050 98 dc df 3d 25 32 9c 3d c5 93 94 3c 7e fd 8f bd
       0.10930747 0.07626752 0.018136868 -0.07030772
000060 9c 9b c8 ba e3 54 a7 bd 89 60 58 3d b2 fb 22 3d
       -0.0015305164 -0.08170488 0.052826438 0.039790817
000070 8c fd f9 bd ba 05 0f be 3f 52 3d bd c5 88 d6 bd
       -0.12206563 -0.13967028 -0.046221014 -0.104753055

weight f4 [32, 53]
000000 09 d6 4b bd 18 46 bf 3e 80 ff 94 3d 2c bc 1f 3e
       -0.049764667 0.37358165 0.07275295 0.15599126
000010 2e 1e 88 bd 56 84 1c be 77 60 4a be bc c6 c9 3e
       -0.06646381 -0.15284857 -0.19763361 0.39409435
000020 de b4 be bc ac 91 a4 3c 6c d8 80 bd 68 a6 c8 3e
       -0.023279604 0.020088993 -0.06291279 0.39189458
000030 78 37 8e be 30 15 d0 bc 86 67 18 be b7 c8 52 bd
       -0.27776694 -0.025400728 -0.14883241 -0.051460948
000040 68 5e d4 be 9d 3a 08 3d 90 98 6a 3d 7f e6 da 3d
       -0.41478276 0.033259023 0.0572744 0.10688495
000050 f1 22 24 3d 06 88 ba bd dc de 27 be ab be 01 be
       0.040072385 -0.09107976 -0.16393608 -0.1267039
000060 b4 1a 3b bd dd a5 f6 3d ac 9f f7 3d 00 3e 0b 3f
       -0.045679763 0.12043355 0.12091002 0.5439148
000070 86 08 4c 3e 75 80 12 be 56 4b 71 be 38 0a 68 be
       0.19925126 -0.14306815 -0.23563895 -0.22660148
000080 31 1c 9d 3d 42 20 64 3c cb 09 ad 3d df 02 a3 3d
       0.07671393 0.0139237065 0.084491335 0.07959532
000090 00 ed 2d 3e 63 5b ed 3b ec f8 ca 3d c4 83 44 bd
       0.1698494 0.00724356 0.09910759 -0.047977224
0000a0 1f 6d 52 3e 8c 69 68 3e 34 e9 3e bd a4 6b ac 3d
       0.20549439 0.22696513 -0.04660912 0.08418968
0000b0 49 2a c7 3d 8a ff 80 bd b0 9b c5 3d b7 31 2e 3d
       0.09724862 -0.0629874 0.09648836 0.04252788
0000c0 ff 89 30 3e 9d 13 01 3e 40 b2 c0 3d c8 d5 f5 bd
       0.17240141 0.12605138 0.094089985 -0.12003666
0000d0 f9 00 aa 3c 9b 36 00 bd c4 2b af bc b6 c0 d4 3d
       0.020752417 -0.031302076 -0.021383174 0.10388319
0000e0 28 03 52 3e 17 24 d6 3d 42 78 c5 bd 4b a3 33 be
       0.20509017 0.10456102 -0.09642078 -0.1754276
0000f0 2a e4 03 be 58 71 74 bd 2f 93 22 3d a9 68 12 be
       -0.12880006 -0.059678406 0.039691146 -0.14297737
000100 01 e9 76 3e 7e c2 3b 3e 5c 74 9e bd 06 27 bb 3d
       0.24112321 0.18335912 -0.077370375 0.091383025
000110 9f 11 41 be cd 18 e6 3c b5 7e d9 3d be 15 77 39
       -0.18854378 0.028087998 0.106198706 0.00023563855
000120 aa 31 cb bd bd 6a c7 3b 21 31 a1 3e 23 e8 7a bd
       -0.09921582 0.0060857222 0.31482795 -0.06125654
000130 04 ea 85 be 75 5c 9c 3d 2d ed 9e be fe 3b 13 be
       -0.26155102 0.07634822 -0.31040326 -0.14378354
000140 a7 8a 82 be 48 3b ae 3d 1e e2 b3 3d c8 25 d8 3d
       -0.25496408 0.08507401 0.08783363 0.10554081
000150 e4 6c 89 bd 87 c6 bc 3d 94 e6 80 3d 10 0e a8 bc
       -0.06710222 0.092175536 0.06293979 -0.020514518
000160 2b 24 b7 3d 18 da 69 bd bc 1f 52 3c de 00 ad 3c
       0.08942445 -0.057092756 0.012824949 0.021118578
000170 61 19 7c 3b 85 42 76 bd 8a a7 59 be fe f9 eb bd
       0.0038467275 -0.06012203 -0.21255317 -0.115222916
000180 05 85 85 3c 25 06 a1 bd 6e 1d f6 3d fe 70 2f 3c
       0.01629878 -0.078625 0.12017332 0.010708092
000190 2d 44 b2 3d fd de 06 3e b3 b9 4a 3e 38 d5 98 be
       0.0870441 0.13171001 0.19797401 -0.29850173
0001a0 e5 02 68 bc 36 00 10 3d 1e 70 b5 3d bd e3 48 bd
       -0.014160846 0.03515645 0.08859275 -0.049045313
0001b0 7c 30 5a bd 03 04 96 3c 1e db 52 bd ee e6 3e be
       -0.053268895 0.01831246 -0.051478498 -0.1864278
0001c0 33 5b a4 ba 38 71 88 be 2b 5e 52 bd 4b 28 75 3d
       -0.0012539387 -0.2664888 -0.051359337 0.05985288
0001d0 61 77 e0 3d 59 db 10 3e a1 e8 b8 bd 28 60 92 3d
       0.1096027 0.14146174 -0.090287454 0.071472466
0001e0 e4 ea 3a be ad 9e 87 3e 89 b6 15 3e 3d 05 23 3c
       -0.18253666 0.26488248 0.14620413 0.009949979
0001f0 27 8c 86 bd 1e c2 5b be 19 97 84 bd 91 41 be bd
       -0.06569701 -0.21460769 -0.06474132 -0.092898495
000200 ce ba 0d ba f9 02 ac be 3e ff 81 3e 1d ec 3f 3d
       -0.0005406559 -0.33596018 0.25390047 0.046856035
000210 11 0e 1e be 13 76 d3 bd 8f 32 86 be ef 83 83 be
       -0.15435053 -0.10325255 -0.26210448 -0.25686595
000220 bd 34 af bd 6c ba 42 bd ad 1c fb 3c b6 35 82 3d
       -0.08554981 -0.047541067 0.030653322 0.06357901
000230 58 1e ef bd 43 80 1f 3e 09 b4 96 3d 47 ca 89 3e
       -0.116757095 0.15576272 0.07358558 0.26912138
000240 23 60 08 be 70 a3 42 be 54 0c 7c bd 5c 0f 93 3e
       -0.13317923 -0.19007659 -0.061535195 0.28722656
000250 06 af f4 bd 05 96 62 3d dd 6e ab bd a6 11 2f be
       -0.119474456 0.05531885 -0.08370755 -0.17096576
000260 40 f8 11 be d2 93 60 3d 69 bc 47 be 36 42 2f be
       -0.14254856 0.054828472 -0.19505467 -0.17115101
000270 3b 05 d9 3b 45 b9 45 be e0 2c bc bd 04 43 e0 bc
       0.006622938 -0.19308956 -0.09188247 -0.027375706
000280 15 1e 59 3e 5e 55 0c 3e d3 41 58 3d c1 ec fc bc
       0.21202882 0.1370444 0.05279715 -0.030874612
000290 54 6f 75 3e e7 ce f2 3d 95 8a 89 be 00 c8 a3 3d
       0.2396825 0.1185587 -0.26863542 0.07997131
0002a0 b1 06 7b 3e 12 1d 15 be 40 d5 1b 3e e8 6c 08 3e
       0.24514271 -0.1456187 0.15218067 0.13322794
0002b0 0e fe e1 3d b7 19 4a bd 05 e5 e7 bd e5 af 7f be
       0.11034785 -0.04934093 -0.11322979 -0.24969442
0002c0 64 78 80 3e a9 f5 68 3d d3 37 36 3e ec af c0 3d
       0.2509185 0.056874905 0.17794733 0.094085544
0002d0 c4 16 bb 3d 9a f9 fb bc ed 3c 98 bc 14 b0 b0 bd
       0.091352016 -0.030758668 -0.01858374 -0.08627334
0002e0 48 d0 4b 3e 4c 2c 83 ba 97 15 8d 3d c8 57 98 be
       0.19903672 -0.0010007708 0.068888836 -0.29754472
0002f0 92 96 3c 3d bd 1a 74 3e b6 4b 83 bd 22 7a 21 3e
       0.046042033 0.23838325 -0.06410925 0.15769246
000300 94 fa e0 bc 21 70 45 3d 40 87 c7 3c 2d a8 5a bd
       -0.027463235 0.048202638 0.024356484 -0.05338304
000310 86 96 55 be b5 63 2f 3d 43 c5 f2 bd 92 ee a7 3d
       -0.20858201 0.042819697 -0.11854031 0.081998006
000320 94 77 70 3e 30 99 51 be b6 74 57 bd ac fe 5e 3d
       0.23483115 -0.20468593 -0.05260154 0.054442093
000330 69 db 59 3c 53 ff b5 3d 6e e9 27 3e dc 75 55 3d
       0.01329694 0.0888659 0.1639764 0.052114353
000340 a0 9a a5 3d d5 66 83 be fd 6c 04 3d 3e a4 97 be
       0.08086133 -0.25664392 0.0323305 -0.29617494
000350 f7 79 bd 3d 0e 03 19 3c ff 9e e6 3c 8d 96 d4 bd
       0.092517786 0.009339107 0.028151987 -0.10380278
000360 df e4 e4 3d 64 db bd bd dc b5 ad 3d f1 04 42 3e
       0.11176466 -0.09270361 0.084819525 0.18947197
000370 e9 76 44 bd 99 6e 2b 3e 3a 33 da 3d c1 4e 0f 3e
       -0.047964964 0.16741408 0.10654302 0.13994886
000380 cd 57 36 be 8c ee ae 3d a0 22 41 3b b6 8d dd bb
       -0.17806931 0.08541593 0.00294701 -0.006761278
000390 ff e1 05 3e ad 22 b9 3d 00 55 18 bd 7e 4f bc bc
       0.13074492 0.09039817 -0.037190437 -0.022987124
0003a0 c8 c6 62 3d aa 0f 4d be 69 f0 dd 3a 16 bc 92 3d
       0.055365354 -0.20025507 0.001693261 0.07164781
0003b0 1f a1 56 be e9 dd 30 be 6e d5 ca bd a1 2f 74 3e
       -0.209599 -0.17272152 -0.0990399 0.23846294
0003c0 b1 e9 e1 be f9 42 6d be c5 4a d5 bd a8 3a 79 bd
       -0.44123605 -0.2317008 -0.10414652 -0.060846955
0003d0 9a b0 f5 bd 6a 44 32 bd 0b 87 4d 3e 11 44 6a bd
       -0.11996575 -0.043522276 0.20071046 -0.05719382
0003e0 3b ef 1d 3e ce bd dd 3d 7a 86 84 3e d3 67 cf bd
       0.1542329 0.10827218 0.25883847 -0.10127225
0003f0 4f a5 09 3e 9e 76 45 be 9a 31 e6 bd c2 90 1d 3e
       0.13441966 -0.1928353 -0.112399295 0.15387252

bias f4 [32]
000000 fa da 06 3e 15 b3 02 3e c6 df 1c 3e 8d a8 5d 3c
       0.1316947 0.12763627 0.15319738 0.013528955
000010 22 ae 96 bd c0 40 6f 3d 2d 20 35 3d 2d a8 19 bd
       -0.07357432 0.05841136 0.04422014 -0.0375139
000020 2b 4c 45 bd f1 70 13 bd 43 f6 8a bd 4c 48 9c bd
       -0.048168343 -0.03599638 -0.06785252 -0.07630977
000030 35 df fe bb a3 42 fb 3b 13 ff 92 bd ee 14 9f bd
       -0.007778073 0.007667856 -0.07177558 -0.07767664
000040 4c ae 8e 3d 71 04 22 bd 11 1a 14 3d e8 20 d1 bd
       0.06966838 -0.039555017 0.03615767 -0.102113545
000050 29 53 c4 bd 1b ab c0 3c 5c 6c 8a 3d 0a 38 8c 3d
       -0.09586174 0.02351909 0.06758949 0.06846626
000060 fe 61 57 bc 7a 99 0f 3c cc 60 89 bd 0e 88 d8 3d
       -0.013145922 0.008764619 -0.06707916 0.10572825
000070 0e 1e 03 bd 71 bd fd bd 5b 1c 9d bd 21 a2 2f 3e
       -0.032011084 -0.12389649 -0.07671424 0.17151691

weight f4 [32, 53]
000000 22 7e 81 bd 76 b3 d5 3b 04 1e b8 3e 07 c0 03 3c
       -0.06322886 0.0065216376 0.359604 0.008041388
000010 88 6b 39 3e ab eb 28 3d 82 75 5c bd d1 21 82 3e
       0.18107426 0.041240375 -0.053823 0.25416425
000020 d6 07 04 3d 9e be 67 3e 06 5b 7e 3e 00 7c 51 bd
       0.032234035 0.22631308 0.2483941 -0.051143646
000030 ae 7d c6 be d8 02 2b 3e 1d e4 e9 3d 48 3e aa 3e
       -0.3876776 0.16700304 0.11420462 0.33250642
000040 96 48 8f bc 42 00 07 3d c1 e6 14 3e 7e 6b 29 3e
       -0.017490666 0.03295923 0.1454115 0.16544911
000050 10 76 6a be 6d df 2a 3e 09 0a 10 3e af 9a 96 bd
       -0.228966 0.16686793 0.14066328 -0.07353722
000060 72 e8 71 be 8b 36 77 3e 74 d0 88 be 68 d9 65 3e
       -0.23623827 0.241419 -0.26721537 0.22446215
000070 33 84 01 be 45 72 50 3d 06 29 09 be 74 6e 05 be
       -0.12648086 0.050890226 -0.13394555 -0.13030416
000080 9a 0e 82 3e cc 4c 06 bd af cb c4 bd 94 b3 d9 bd
       0.25401765 -0.032788083 -0.09609162 -0.10629955
000090 f8 f0 12 3e 4a 29 27 3e b1 2d 1b be 63 28 1e be
       0.14349735 0.16324344 -0.15154149 -0.15445094
0000a0 ba e9 bc bc 86 59 25 3d 5d c6 c3 3d 13 21 ba 3d
       -0.023060668 0.04036858 0.09559319 0.0908834
0000b0 cd 33 9a 3d 0e 46 94 3d 7c b2 21 3d 0b 04 a0 bd
       0.075294115 0.07239924 0.039476857 -0.07813271
0000c0 34 41 19 bc 40 16 9e 3c 7f 8a a2 3c 10 51 24 be
       -0.009353925 0.019297719 0.01984143 -0.16046548
0000d0 b1 2a fb 3d c1 f1 b0 3d 52 17 83 3c a8 28 30 3e
       0.12264002 0.08639861 0.01600233 0.17203009
0000e0 1c 04 fd bd 97 30 a1 be ce 69 cd bd 39 c6 09 3e
       -0.123542994 -0.31482384 -0.10029946 0.13454522
0000f0 f2 5d f0 3d 35 77 a9 bd b7 1e 61 3d 56 47 80 bd
       0.11736669 -0.0827469 0.054960933 -0.06263606
000100 1d c3 cc 3d b8 c5 3f 3e 09 e4 40 be b3 f8 e8 3c
       0.099981524 0.18727767 -0.18836989 0.028438902
000110 1a 2f 0c bd b4 4c a4 3e 68 2d 64 be 82 d8 e5 3d
       -0.034224607 0.3208977 -0.22282946 0.11222936
000120 3b f4 96 bd 68 3a ce 3c 84 a1 30 be ac 64 4c 3e
       -0.07370802 0.025174335 -0.17249113 0.19960278
000130 22 4c 34 3d 03 cc 16 3e 7a 32 74 3e 28 14 0a bd
       0.04401792 0.14726262 0.2384738 -0.03371063
000140 20 16 ee 3d 31 eb a5 3d 69 69 94 be 6f 37 c7 bd
       0.11625314 0.081015 -0.28986672 -0.0972737
000150 04 97 01 3e 36 e4 19 3e 96 38 1c 3e f4 3b eb 3d
       0.12655264 0.15028462 0.15255961 0.114860445
000160 a6 29 c0 be 41 5b 0c 3d 5e 70 82 3d 54 58 25 be
       -0.37531775 0.034266714 0.063690886 -0.16146976
000170 66 b5 2b 3e 2d cf 6b bc 4a f0 a9 3d 00 13 a4 3d
       0.16768417 -0.014392656 0.082977846 0.080114365
000180 78 8e 78 be 4d 35 a0 bb fe ba f1 3d 5d 94 8b 3d
       -0.24273098 -0.0048891664 0.11803244 0.068154074
000190 ba df 10 3d a3 10 25 be 39 71 d4 3b fc d1 dc bc
       0.035369612 -0.16119628 0.0064832238 -0.026955597
0001a0 23 ae 17 3e f0 3b c9 3d 93 17 71 be ae 3e 82 3e
       0.14812522 0.09825885 -0.23544149 0.25438446
0001b0 9a cc db bd 4c 41 52 3e 0d dd 91 3b a5 c0 4f 3d
       -0.10732384 0.20532721 0.0044514 0.05072083
0001c0 5c 81 34 3d 83 cd 50 3e 8b 7e a8 3c 67 db 91 bc
       0.04406868 0.20390896 0.020568153 -0.017804815
0001d0 99 b1 cd 3c 57 cb a6 3d 06 2e 9b be e6 57 8d 3d
       0.0251091 0.08144253 -0.3030855 0.06901531
0001e0 71 50 7f 3e 00 00 00 00 39 05 1f bc ad 21 14 be
       0.2493303 0.0 -0.009705835 -0.14465971
0001f0 cd 26 f1 3c e7 3e 3e be 9e de d8 3d a8 c9 a3 3e
       0.029437447 -0.18578683 0.10589336 0.3198979
000200 f7 90 d7 bd 9c e0 f3 3d 21 5a f8 bc ba 9e 4a 3e
       -0.10525697 0.11908075 -0.030316414 0.19787112
000210 3a 7b 8e be 9b 27 38 3e 70 6e bc 3d 83 1e a3 bd
       -0.2782839 0.17983858 0.09200752 -0.07964804
000220 5d 5a ae 3e 4b 26 61 be b5 65 0a be be dc df 3d
       0.34053317 -0.21987264 -0.1351536 0.10930775
000230 b9 08 ab bd 79 5d 54 3e 99 56 f0 3d fd d5 0d be
       -0.08351273 0.20738782 0.11735267 -0.13851161
000240 69 95 be bd 72 8e 05 be 60 f9 ca 3e 45 dc fd b9
       -0.093058415 -0.1304262 0.39643383 -0.00048420034
000250 c1 f3 d4 bd ee 11 5b 3d 17 c8 2e bd ce 3b 56 3d
       -0.10398055 0.053483896 -0.04267129 0.052303128
000260 3b eb 72 3e af 1c 4d bd a5 22 52 3b 72 26 90 3e
       0.23722546 -0.050076183 0.0032064107 0.2815433
000270 f3 23 51 bd d5 b4 37 bd 53 d3 65 bd 05 2c 02 be
       -0.051059674 -0.04485019 -0.056109738 -0.12712105
000280 02 e5 83 bd 45 99 82 bd 45 b8 d6 bd d0 03 31 bd
       -0.06440164 -0.0637689 -0.104843654 -0.043216527
000290 dc c2 7d be ac d7 9e bd d3 af 1f be 93 bc 3e be
       -0.24781364 -0.0775598 -0.15594415 -0.18626623
0002a0 71 58 fe 3d b5 57 f6 bd 33 ce 9d 3d a2 35 81 3d
       0.124192126 -0.120284475 0.07705345 0.06309058
0002b0 a5 ba 5f 3e a2 85 01 bd fa 93 aa bd a0 02 c1 bd
       0.21848543 -0.031621583 -0.083290055 -0.09424329
0002c0 3d d6 9a 3d 64 27 88 3d 87 6d 1b be 7e f7 bd 3b
       0.07560394 0.06648138 -0.151785 0.0057973256
0002d0 e9 5b 0f 3e 37 bd f6 3c ad 10 8b be 34 17 d3 3d
       0.13999905 0.030119522 -0.2716116 0.1030716
0002e0 48 d9 b0 3e 2e 7e 03 be 9b 78 dc bd 93 9f 1d be
       0.34540772 -0.12841102 -0.10765191 -0.15392904
0002f0 64 af 28 3e 5b dc 1e bd 7c 77 86 3e 50 1e 9a 3e
       0.16473156 -0.038784366 0.26263034 0.30101252
000300 c7 58 61 3d a5 c1 b5 3e 40 dc b0 bd 06 a9 bb bd
       0.055016305 0.35499302 -0.08635759 -0.09163098
000310 a3 33 60 bd b1 01 49 3e 4c 9f 80 3e b6 a9 d8 bd
       -0.054736745 0.19629551 0.25121534 -0.10579245
000320 ca 71 f0 bb 61 0a 49 be 1e a0 42 3d 86 e8 1b 3b
       -0.0073377835 -0.19632865 0.04751598 0.0023789718
000330 d4 6d dc bd 5d 48 b7 3e 12 6a 91 3e 2b 5f 83 3e
       -0.107631356 0.35797396 0.28401238 0.25658545
000340 60 93 4e 3c 7c 12 49 3d 32 cb 53 3e f4 f4 2a 3d
       0.012608379 0.049089894 0.20682982 0.04173751
000350 80 1d 5f 3d cb 3a 64 3d 93 c8 53 bd 1a b7 0d 3e
       0.054471493 0.05572013 -0.051704954 0.13839379
000360 60 fe f1 3d bd 47 1f 3e 4a 53 0e bb 60 53 90 bd
       0.11816096 0.1555471 -0.0021717125 -0.070471525
000370 31 09 08 bf a8 41 de bb c3 82 8b be 83 6d e9 3e
       -0.53139025 -0.006782729 -0.272482 0.45591363
000380 99 cc b2 bd 84 5e 62 bc 15 cf 1b 3e b6 5c df 3d
       -0.0873043 -0.01381648 0.15215714 0.10906355
000390 64 76 ce 3d 93 44 ed bd cf 3e 0c 3e 4b e0 c2 be
       0.10081175 -0.11585345 0.13695835 -0.38061747
0003a0 36 ef e5 bd b1 6e aa 3d e0 56 33 3d 93 c6 49 bd
       -0.112272665 0.08321894 0.043784022 -0.04926164
0003b0 99 f0 dc 3d 13 bc a9 3d 4e ed f9 3d 10 d7 9d bd
       0.10788078 0.082878254 0.122034654 -0.077070355
0003c0 dd 42 ae be 8d 2f f0 bd 0b d1 fa 3d 36 6b f7 bb
       -0.34035388 -0.117278196 0.12246903 -0.0075506223
0003d0 96 13 68 3c 6d 97 0d 3e 92 46 5e 3d ab 88 2c 3d
       0.014164826 0.13827296 0.05426652 0.042122524
0003e0 23 76 cd bb 74 b4 eb 3c 92 e6 54 be e3 0f f9 bc
       -0.0062701865 0.02877257 -0.2079108 -0.030403083
0003f0 4a 63 27 3e ff c8 da 3d 75 37 d9 bc 54 59 e2 bd
       0.1634647 0.10682868 -0.026515702 -0.11052194

bias f4 [32]
000000 19 08 c4 3b f4 f0 95 3d eb 8a d5 3d 18 a4 9b 3d
       0.0059824106 0.07321349 0.10426887 0.07599658
000010 89 ae 25 3d 87 d4 91 bd aa ff 05 be 98 79 d1 3c
       0.040449653 -0.071206145 -0.1308581 0.025570676
000020 23 c0 db 3d 6d 1e c5 3d 4f f8 5e 3d a0 84 ed bd
       0.107300065 0.09624944 0.054436024 -0.11597562
000030 3e 72 f8 bd 36 23 1a be 85 49 a3 bc 1c 17 51 bd
       -0.12131165 -0.15052494 -0.019932518 -0.05104743
000040 76 1f e5 3d 68 20 88 bd 9f 6c f1 bd ee 14 2c 3d
       0.11187641 -0.06646806 -0.11788296 0.042012148
000050 02 25 4f 3d 8d a6 21 bd b7 49 4f 3d d4 fa e7 3d
       0.050572403 -0.039465476 0.05060741 0.113271385
000060 6a 7d df bd 49 a7 d0 3d f3 fd 1b bd 62 22 48 3d
       -0.10912593 0.10188157 -0.03808398 0.048860915
000070 0b c8 ba 3d 94 02 18 bd b6 0d 0e be aa f6 fb 3d
       0.091201864 -0.037111834 -0.13872418 0.12302907

weight f4 [32, 53]
000000 5a 79 cf bd d1 15 44 3c 0e 94 d2 3d a5 12 47 be
       -0.10130568 0.011968092 0.102821454 -0.19440706
000010 51 43 36 be 8b b0 91 3d 4b b6 d0 3c 3f 78 d6 3d
       -0.17799117 0.07113751 0.025477549 0.10472154
000020 f1 31 85 bb a8 1f 0b 3d e6 2c f3 3d 1d 08 c9 be
       -0.0040647914 0.033965737 0.11873798 -0.39264002
000030 f2 5d b6 3d 4c bf 2a be cf 40 01 be ee 14 37 3d
       0.089046374 -0.16674536 -0.12622379 0.044697694
000040 28 1f 47 3d 58 0f b8 bd 1c 0d ce bc aa 01 92 3e
       0.048613697 -0.089873016 -0.025152735 0.28516895
000050 ee 54 c3 3e ba c9 c9 3d 40 2d bf 3c 27 e0 d9 bb
       0.38150734 0.098529294 0.023337007 -0.0066490355
000060 e9 24 54 3d 2a 34 0b be 8f 1b 12 be c1 92 b9 be
       0.051793013 -0.13594118 -0.14268325 -0.36244777
000070 45 73 24 be 64 41 13 3d b3 a0 28 3e 27 82 77 3e
       -0.16059597 0.035951033 0.16467552 0.24170743
000080 51 5b b7 3d de 0a c2 3d 0a d9 8c be 7d 69 d6 3d
       0.08952964 0.09474729 -0.27509338 0.10469339
000090 07 67 72 3e 2e 6c c6 be cc ea bb bc 0f 46 ff 3d
       0.23672114 -0.3875441 -0.022939108 0.124645345
0000a0 56 08 ba bd 40 97 8e be 4e 7c 22 3e 77 13 02 3d
       -0.09083621 -0.2784977 0.15867731 0.031756844
0000b0 63 29 cf 3e cc c5 2f bd 68 3d 03 be 69 1a bd 3d
       0.40461263 -0.042913243 -0.12816393 0.09233553
0000c0 0c 33 37 3e 47 77 c1 3d 3b 73 29 3d b4 46 3b 3e
       0.17890567 0.094465785 0.041369658 0.1828869
0000d0 08 a8 22 3e e3 dc 01 be d6 b6 bf 3c 32 89 00 bc
       0.15884411 -0.12681918 0.023402613 -0.00784521
0000e0 cc 01 bd 3e cc ee 52 3e 5c 4a 18 3c bc 52 b6 be
       0.36915433 0.20598906 0.009295072 -0.35609996
0000f0 8a 58 ef 3c 28 03 0f 3d f4 b0 33 3d 32 f4 42 3d
       0.029217023 0.03491512 0.043869928 0.047596164
000100 32 55 58 be e5 31 96 bc 02 41 06 3e d1 4b c1 3e
       -0.2112625 -0.018334338 0.13110736 0.37753156
000110 86 01 fb bc c1 1c 16 3e 97 98 b6 be d9 51 86 3d
       -0.030640375 0.14659406 -0.35663292 0.0655858
000120 01 ab 78 bd 38 27 15 be 5d 78 fd 3c 90 4d 53 3e
       -0.060709957 -0.14565742 0.030941183 0.20635056
000130 d1 1b 3a bd 3e bf 00 be c4 59 ad 3d be bf 4a be
       -0.045436684 -0.12572953 0.08464387 -0.19799706
000140 f1 2d 0f 3b 2b 0e eb 3d 49 19 2d 3d 1d ef 36 3e
       0.0021847452 0.11477312 0.042260442 0.17864652
000150 50 6b 48 be 4c 47 61 bd 12 15 6f bb 72 ee 3d bd
       -0.19572186 -0.054999635 -0.0036481065 -0.046369977
000160 47 7a 0c bd d3 20 aa 3c bb 55 57 3d 59 e2 2b 3e
       -0.0342963 0.020767605 0.052571993 0.16785564
000170 ce 26 a7 3d 50 79 36 bc 96 4c 34 be a5 ab c8 bd
       0.08161698 -0.011137322 -0.1760734 -0.097983636
000180 cc 92 f2 3b df b6 78 be 2e a5 ce bd 52 6e 63 3e
       0.0074027535 -0.2428851 -0.10090099 0.22210053
000190 ab c0 73 bd fa be 24 be 14 e4 ce 3d b8 e3 72 3e
       -0.059509914 -0.16088477 0.10102096 0.2371968
0001a0 ff f4 70 be 2e 5d 57 3c 14 7d 86 3e 83 12 5b 3d
       -0.23530959 0.013144774 0.26267302 0.05348445
0001b0 39 54 76 3c c4 a5 1d bc 6e c8 15 be 54 c9 27 bd
       0.015034729 -0.009622041 -0.14627239 -0.040963486
0001c0 81 00 16 3e 3c 05 a1 bc d4 d2 10 3d dc e2 d7 bd
       0.1464863 -0.019655816 0.03535731 -0.10541317
0001d0 44 24 a5 bb 41 21 af 3e 82 54 39 3e fc b9 3a 3d
       -0.0050397236 0.34205058 0.18098643 0.045587525
0001e0 8a f3 fa bd bb 59 33 be 7c 77 03 3e 26 b9 6e 3e
       -0.12253483 -0.17514698 0.12838548 0.23312816
0001f0 dc 40 56 3d 8a 22 07 be e6 4e 14 3e 6c 93 a7 3d
       0.05230795 -0.1319677 0.14483222 0.08182415
000200 53 e3 1c be a1 3e df bd be 78 b0 3c 95 fd 88 3c
       -0.15321092 -0.109006174 0.02154195 0.01672248
000210 fd 21 b6 bc 3d 0d 4c 3d 16 c6 61 be 82 58 a2 bd
       -0.022233004 0.049817313 -0.2204822 -0.07927038
000220 7e a8 09 3e 57 35 5e be 6e 21 fe bc 7f a0 49 3d
       0.13443181 -0.21700035 -0.0310218 0.049225327
000230 74 8d 1a 3e 39 dc da 3d 8d 87 a6 3d 2f 5c 53 3c
       0.15093023 0.106865354 0.08131323 0.012900396
000240 54 e9 42 3e 54 cf c7 bc bc 6c 94 3d 37 4f 9f 3e
       0.1903432 -0.024390854 0.07247302 0.31115124
000250 cc b9 88 3e ef 8f f3 bc 7f bd 03 bd aa ca 45 3e
       0.26704252 -0.029731719 -0.03216314 0.19315591
000260 d5 0e c7 bd 42 b2 87 be 24 20 eb bd c1 e1 91 3c
       -0.09719626 -0.26503187 -0.1148074 0.017807843
000270 fd 86 46 3d 24 4c 0a 3e 80 e0 93 bd f6 8d f4 3d
       0.04846858 0.13505608 -0.07220554 0.119411394
000280 83 aa b6 3d ce 5b 17 be 75 ee b4 bd 0b b0 3a 3e
       0.08919241 -0.14781114 -0.088345446 0.18231218
000290 55 e5 2f 3e fd ab e5 bc df 2b e5 bd eb 7f c7 bd
       0.17177327 -0.028036112 -0.11190008 -0.09741195
0002a0 75 85 3c bc 75 90 52 3e 10 ff ad 3e 95 d3 38 be
       -0.011506428 0.20562918 0.3398366 -0.18049462
0002b0 ae 94 bd 3c 38 fe b2 be 95 2e af 3b 81 09 31 be
       0.023142185 -0.3495958 0.005346129 -0.17288782
0002c0 5b a7 5b be 6d 85 33 be 3c 80 14 be 49 6f 41 3e
       -0.2145056 -0.17531367 -0.14502043 0.18890108
0002d0 c4 86 4e be c9 44 85 3d 62 9c 77 3e 29 8c dc bd
       -0.20168597 0.0650726 0.24180749 -0.10768921
0002e0 52 6c f5 be a8 cb b9 3c 1b ba 0c bd a5 5e 0c 3d
       -0.47934204 0.022680119 -0.03435717 0.034269948
0002f0 b9 11 ca 3c 8b 48 55 be 17 a1 f6 bc fc f4 a6 3e
       0.024666654 -0.20828454 -0.03010611 0.32608783
000300 84 15 b0 bd 1c fa 13 3e 68 da fc 3c cb 2c 34 3d
       -0.08597854 0.14450878 0.030865863 0.04398803
000310 d3 30 e9 bc 0c a8 6a be bc 0c a1 3e 2a 34 da 3d
       -0.028465664 -0.22915667 0.31455028 0.10654481
000320 c6 3d b6 3e 93 f6 1d be e3 07 3b 3e e2 a9 77 3e
       0.35594004 -0.15426092 0.18264727 0.24185899
000330 6d a1 ec bd c5 cd 1a 3e 72 71 ea 3d b8 28 fb bd
       -0.11554227 0.15117557 0.11447419 -0.12263626
000340 af 9a c3 3c 9d b1 09 be 70 4f 79 be 1b 13 83 3e
       0.02387747 -0.1344666 -0.24346709 0.25600514
000350 e7 84 71 3e dc a6 46 be 27 7e ca bd 01 2f 5b be
       0.23585854 -0.1939959 -0.09887343 -0.2140465
000360 07 af 81 be 5b 6a 2a be 1c 9c a6 3d 22 85 14 be
       -0.25328848 -0.16642134 0.08135244 -0.14503911
000370 22 87 95 3b 6d 15 9b 3c f4 59 74 3c 80 96 00 3e
       0.004563228 0.018931115 0.014914025 0.12557411
000380 58 30 df bb f6 79 70 3d 4d 53 71 bd 10 37 98 3c
       -0.006811183 0.05871006 -0.058917332 0.018580943
000390 8c 5f 37 be bd 4c 03 bf 52 25 99 3e 3f 5a e4 3c
       -0.17907542 -0.5128897 0.29911286 0.027875064
0003a0 8d 4e 9b bd 49 73 6b be 75 2c d9 3d c2 84 02 bd
       -0.07583342 -0.22993197 0.10604183 -0.03186489
0003b0 24 6d 35 be 71 90 af 3d af 56 6b 3e 60 df 88 3e
       -0.17717415 0.08572472 0.22982286 0.26732922
0003c0 6a 31 83 3d 8a 36 5b be 8b 39 17 be 67 c5 6d 3e
       0.06405909 -0.21407524 -0.14768045 0.23219834
0003d0 1e ae 61 be 54 a1 b0 3d 5e cd f9 3e dc 89 73 3d
       -0.22039077 0.08624521 0.48789495 0.059457645
0003e0 57 d7 21 bd 08 f7 a1 be 2f 38 b1 3d d6 1a 87 bd
       -0.039512005 -0.31633782 0.08653294 -0.065969154
0003f0 3f 15 0f bc fb da 3f 3e bb ae 0e 3e 92 22 4f 3c
       -0.008733093 0.18735878 0.13933842 0.01264252

bias f4 [32]
000000 d5 7d 65 3d fa 5f 02 be 2c 2a e1 bd 27 41 9c 3c
       0.056028206 -0.12731925 -0.10994372 0.019074036
000010 c6 b7 c8 bc d5 e1 89 3d a9 2d 37 bd e7 10 6e bd
       -0.024501693 0.06732527 -0.04472128 -0.058121588
000020 fb 3b f5 bd 37 28 d3 3d 00 06 cc bd 1f 7f f9 bd
       -0.11974331 0.10310405 -0.09962082 -0.121824495
000030 1d 4e 67 3d 97 49 19 3c 91 e0 06 bd 6f 6d 4d bd
       0.05647098 0.009355924 -0.032929007 -0.050153192
000040 d7 ea 8d bd 31 0f db bc 99 6a 29 3d 76 d5 dd 3c
       -0.06929558 -0.026740642 0.041361425 0.027079325
000050 d1 90 ff bd d8 9b 75 bc 15 a9 10 3d b7 50 cb bd
       -0.124787934 -0.014990769 0.0353175 -0.099275045
000060 d6 e8 fa bd 3a 5b ea 3d 75 e5 c4 3d 74 ca dd 3c
       -0.12251441 0.11443181 0.09614078 0.027074076
000070 87 9f b7 bd 27 92 04 bd 09 61 30 be e0 72 f0 bb
       -0.08965974 -0.032365944 -0.17224516 -0.007337913

0 f4 [32, 32]
000000 9d a9 3a be b4 56 89 be 42 4b c5 3d 09 c5 c2 3b
       -0.18228765 -0.26823962 0.09633495 0.0059438986
000010 d2 87 18 bd cd 0e 41 3e 58 6f 58 3d 5c ef e4 3d
       -0.037238903 0.18853302 0.05284056 0.11178467
000020 08 4d 12 3e d6 87 3b 3e 43 a9 74 be f9 12 02 be
       0.14287198 0.18313536 -0.23892693 -0.1270255
000030 e9 17 04 bd 2a 31 8d 3d 0c ce 0b be bc 0a c1 3d
       -0.032249365 0.06894143 -0.1365282 0.094258755
000040 2d 40 4c be 6a f8 3a bd 5e 99 b5 bd 55 5f e4 3c
       -0.19946356 -0.045647062 -0.08867143 0.02787749
000050 ba 54 67 3b df 35 44 bd d0 51 24 3e b0 5c f1 bd
       0.0035298304 -0.047902938 0.16046834 -0.11785257
000060 67 91 a3 3d 15 8d 8f 3e c4 55 63 3e 8c 18 33 be
       0.07986718 0.28037325 0.22200686 -0.17489833
000070 fd 51 db 3d 5c 63 af bd 4b 08 74 3e 48 91 bb 3c
       0.107089974 -0.08563873 0.23831289 0.022896424
000080 94 03 27 3e 7c 4f 23 3e 65 c3 39 bd e2 5e 62 3c
       0.16309959 0.1594829 -0.04535236 0.013816567
000090 6b 0e 2b be 5e 59 57 be 49 a8 dd 3c c9 99 b8 bc
       -0.16704719 -0.21030185 0.027057784 -0.022534268
0000a0 f5 3e 2c 3e 36 2d b4 be 23 f2 b0 3c ad 72 15 3a
       0.16820891 -0.35190743 0.021599835 0.0005700987
0000b0 d9 98 77 be 2e ec c8 3b d6 e0 40 3e ec e9 cd 3d
       -0.241794 0.0061316704 0.18835768 0.10054383
0000c0 df 57 37 bd da 59 d4 bd b8 91 1c 3d df 85 3f bd
       -0.044761535 -0.103687 0.038224906 -0.04675853
0000d0 0f 39 a5 be e9 7d 54 3e 4e c1 0f 3e 58 04 ed 3d
       -0.32270095 0.20751156 0.14038584 0.11573094
0000e0 a9 f8 15 3e 0c 7a 34 be ac b3 f5 bd 91 29 e8 bb
       0.14645638 -0.17624682 -0.1199716 -0.007085033
0000f0 30 e7 51 be 56 f0 57 be bd 0f ef 3c 06 6d d9 bd
       -0.20498347 -0.21087775 0.02918231 -0.10616498
000100 0b ac 5f bd 94 7c ca 3c fb 04 6a bd 74 4a 3d 3d
       -0.054607432 0.024717607 -0.057133656 0.046213582
000110 50 cc d0 3d b9 fc 3b 3e 59 6d 88 3e 90 1a 14 be
       0.101952195 0.18358125 0.26645926 -0.14463258
000120 c6 1d bd bc 36 ee d1 bd 85 03 06 3b 72 13 c9 3d
       -0.023085486 -0.10250513 0.0020448875 0.09818162
000130 8b 3a bf bd 3e b8 e7 bd 64 bd 53 3d ec e5 a7 3d
       -0.09337338 -0.11314438 0.05169429 0.08198151
000140 a7 ed 05 3e 3f 21 24 3e 4d 32 01 3e ae 79 74 3e
       0.13078938 0.16028307 0.12616844 0.23874542
000150 c1 2b e8 3d 8f 61 e9 3c ca 6a 01 be 9a 40 de 3d
       0.113364704 0.028488902 -0.12638393 0.108521655
000160 79 02 94 3c 8b b7 be bd a4 6e 37 bd 82 64 68 be
       0.018067585 -0.09312352 -0.04478325 -0.2269459
000170 79 19 14 3e 0a 56 54 be 04 d9 b3 bd 93 6b c7 bd
       0.14462842 -0.20735946 -0.08781627 -0.09737315
000180 2d 45 d8 3e a4 e0 a7 bc ce 47 62 bd 60 1a 4c 3a
       0.42240277 -0.02049286 -0.05524426 0.00077859126
000190 aa e8 06 bd 0b f5 12 3e 5c 55 9d 3c 29 b4 1c 3e
       -0.03293673 0.14351289 0.019205742 0.153031
0001a0 a5 a6 02 be 55 f3 5a bd 76 ae e9 bd ae 1b bf 3d
       -0.12758882 -0.053454716 -0.11410229 0.09331451
0001b0 27 a7 eb bd 56 15 9f be 92 48 26 be 9d 13 4f bd
       -0.11506491 -0.31070966 -0.16238621 -0.050555814
0001c0 1a cd 98 3d b7 50 51 3d ec 90 35 be b6 21 21 be
       0.07460995 0.051102366 -0.17731065 -0.15735516
0001d0 8d c1 42 be 84 7c 97 3e 61 91 cc bd c0 dd 2a bb
       -0.19019146 0.29587185 -0.09988666 -0.0026072115
0001e0 8f 48 04 3e 96 b9 a5 bd 1e fc 0c be 76 9a 6f 3e
       0.12918304 -0.08092038 -0.1376805 0.23398766
0001f0 73 cf 86 3e 1f 4a 87 bd 04 a4 7f 3e 8b b9 44 3e
       0.26330146 -0.06605934 0.24964911 0.19211404
000200 ed b9 47 3d 15 a0 58 be 35 3a 41 be f1 0f 4b bb
       0.048761297 -0.21154816 -0.1886986 -0.0030984844
000210 6f b0 26 3d e3 24 78 3e 6b 34 06 be 53 6e 35 3e
       0.040695604 0.24232821 -0.13105933 0.17717867
000220 31 d6 ed bd 19 09 ff bd 48 6c 36 be 1c 11 1d 3e
       -0.116131194 -0.12452907 -0.17814744 0.15338558
000230 b9 fe d6 be 3d dc 25 be da 8b a1 3e b7 a4 df 3d
       -0.41991213 -0.16197295 0.3155201 0.10920089
000240 08 7f cf 3d d0 9c f1 3d 85 79 8e 3d 87 4b b3 bc
       0.10131651 0.11797488 0.06956772 -0.0218866
000250 30 83 47 3e 0b 3d ce 3d 7e b4 17 3e cc 82 6b be
       0.19483638 0.10070237 0.14814946 -0.22999114
000260 05 d8 8c be 1e b9 d1 3c 15 ca 3c be e3 c2 2f 3d
       -0.2750856 0.025600966 -0.18436463 0.042910468
000270 fb 10 bc bd ef 36 18 3e 01 e9 8a 3e 09 d0 10 3e
       -0.09182926 0.14864706 0.27130893 0.14141859
000280 c8 e2 41 3e df e6 52 3d be dd b3 be 14 b5 43 3d
       0.18934166 0.051489707 -0.35130113 0.04778011
000290 62 a2 6c be 5d 54 3e 3e b5 3a de be d4 3c 0a be
       -0.23108819 0.1858687 -0.43404165 -0.13499767
0002a0 77 57 5d 3b d0 a3 a4 ba 7c 0f a7 be 31 c8 a9 3d
       0.0033774057 -0.0012561027 -0.32629 0.082901366
0002b0 d2 8c 8a be 16 17 3d 3d e1 5f 1f bd b5 0c 39 be
       -0.27060562 0.046164595 -0.038909797 -0.18071254
0002c0 b9 0b c7 bd 44 7a b2 be 9c 00 bf 3d 66 48 44 3e
       -0.09719033 -0.34858906 0.09326288 0.19168243
0002d0 6b b1 50 be 74 4d a9 be 40 fb 9f 3d 31 fd c3 3d
       -0.2038018 -0.33066905 0.07811594 0.09569777
0002e0 b4 93 ae 3e ce 97 b4 bd 1a 7d 9b bd 8e 38 bb bd
       0.34097064 -0.08818017 -0.075922206 -0.09141646
0002f0 a8 0d 63 3e 19 4f ea 3d ab bb b9 3d 31 15 6e bc
       0.22173178 0.11440868 0.09068998 -0.01453142
000300 ee ad 51 3e 66 70 c6 be 8c a1 a7 bd 91 79 11 3e
       0.20476505 -0.38757628 -0.081851095 0.1420653
000310 35 f9 e7 bd 76 14 c0 bc 23 48 d4 3b 92 26 09 3e
       -0.11326829 -0.023447257 0.006478326 0.1339362
000320 03 cb 07 be 46 15 fa 3d e3 b3 42 3d d7 7a 81 be
       -0.13261037 0.12211089 0.047534835 -0.25289032
000330 e7 40 cc 3d 56 1a 27 3d 22 f8 89 3d 63 24 f7 3c
       0.09973317 0.0407966 0.06736781 0.030168718
000340 d6 ee 42 3e b6 33 a2 3c 12 2a 40 be 77 86 60 3c
       0.19036421 0.019800048 -0.18766049 0.013703934
000350 10 f0 a9 bd 0f c3 fb bc 4b f1 3d 3e ab c7 56 3e
       -0.082977414 -0.03073266 0.18549077 0.20974605
000360 8a 92 bf bd ce 6a aa 3b 8d f9 ad bc e0 90 25 3d
       -0.09354122 0.0052007204 -0.02123716 0.040421367
000370 cd 05 d1 3c 3e b7 14 3c 1e c4 28 bd 10 5e f0 3d
       0.025515461 0.0090768915 -0.041202657 0.11736691
000380 b6 aa ed bd 60 7b 22 be 04 a4 f4 3d e5 95 b2 bd
       -0.11604826 -0.15867376 0.11945346 -0.08719996
000390 4e 9d c0 bd 8f 2a 73 3d 98 d8 8f bc 09 71 2e be
       -0.094050035 0.05936676 -0.017559335 -0.17035307
0003a0 d2 ef 75 be 2e 43 ca 3d 69 5f 8f be d8 77 34 be
       -0.24017265 0.09876095 -0.2800248 -0.17623842
0003b0 e2 ae d6 3d 8c 32 69 3e 20 6b 0a be 46 c0 0c bd
       0.10482575 0.22773188 -0.13517427 -0.034363054
0003c0 0a 4b e9 3d af 9d ba 3d 47 fd 20 bc 1e c2 97 3c
       0.11391266 0.09112107 -0.009826011 0.01852518
0003d0 1e 86 9d 3b f7 44 39 3d 11 cc 81 bd e1 0d ba bd
       0.004807248 0.045231786 -0.06337751 -0.090846784
0003e0 a1 3d ef bc 4a fd 4f 3e bb 69 3e be da 33 04 bc
       -0.029204192 0.20311466 -0.1859502 -0.008069003
0003f0 d9 1e 98 be 11 7d 85 3d 5b 9e f1 bd 41 7e 28 3e
       -0.29711035 0.06517995 -0.11797782 0.16454412

1 f4 [32, 32]
000000 34 44 d7 3d e5 27 71 bc cf 25 93 3e 6f 99 8e bc
       0.105110556 -0.014718984 0.28739783 -0.017407147
000010 3a 4a b9 3d 36 26 dc be 00 69 1a 3e b8 8c 62 3e
       0.09047361 -0.42997903 0.15079117 0.22123992
000020 ed c4 cd bd 1e 9f f0 bd 07 4d 93 3d bb 0b 84 bd
       -0.10047326 -0.11749099 0.07192426 -0.0644755
000030 b4 ca e3 3a e1 18 ce 3d d7 b8 b8 be b8 41 86 3d
       0.0017379136 0.10063339 -0.36078522 0.065555036
000040 ba be 82 be 40 01 62 be f2 e7 8d bd a8 c2 13 3e
       -0.25536138 -0.2207079 -0.06929006 0.14429724
000050 71 2f 8f bd 26 18 15 3e c7 f6 b0 3c 70 89 82 3c
       -0.069914706 0.14559993 0.021602048 0.015934676
000060 00 40 13 3e 29 6e d7 be f9 d7 52 3e 4a 48 ad bd
       0.14379883 -0.42076233 0.205902 -0.08461054
000070 b3 2f 8e 3e cf 2e 9b be b8 d4 c3 bd 26 0c 1f 3e
       0.27770767 -0.3030915 -0.09562057 0.15531978
000080 b7 8d 83 bd 37 61 28 3e 7d 70 0b 3e 3a ee bc 3d
       -0.06423514 0.16443335 0.1361713 0.092251256
000090 53 47 15 3e 38 44 23 be df d7 6e be b2 7d 22 bd
       0.1457799 -0.15943992 -0.23324536 -0.039670654
0000a0 6e 5a cf 3d b6 ea b6 bd e0 41 86 be cc a5 89 3e
       0.1012467 -0.08931486 -0.26222134 0.26884305
0000b0 2b a9 27 bc a4 27 87 3e 61 0a 94 bd ab 5a 8e 3e
       -0.010233204 0.2639743 -0.07228542 0.2780355
0000c0 56 69 93 bd 7c 00 f2 3d 3d c8 01 bd 72 93 7d 3d
       -0.071978256 0.11816499 -0.031685103 0.061908193
0000d0 ae 26 9a bd 4b 3a 71 bd 4b 51 67 bc 87 de b8 be
       -0.07526909 -0.058893483 -0.014118503 -0.36107275
0000e0 71 d5 89 bc dc 70 3b 3e eb a0 5b bd 4c e1 ac 3d
       -0.01682541 0.18304771 -0.05362026 0.084414095
0000f0 b9 cd 91 3d 22 d5 71 bd 9d 48 0a 3d 84 94 c0 3c
       0.071193166 -0.05904115 0.033760656 0.023508318
000100 8f f0 3a be e4 41 94 3d 1e ad 62 be 29 4b 21 3d
       -0.18255828 0.0723913 -0.22136351 0.03937832
000110 39 fd 1c be 29 26 43 bc 22 7d 1c be 86 aa 78 be
       -0.15330972 -0.011910954 -0.1528211 -0.242838
000120 54 8a c0 3e da 6e 1f be 22 3b ab 3d 66 bb 06 3c
       0.37605536 -0.1556963 0.08360888 0.00822339
000130 ab 2d 22 be c7 81 da bd 16 28 07 3d 7b e7 80 3e
       -0.15837733 -0.10669284 0.032997213 0.25176606
000140 b6 16 3c be d4 d4 b1 3e f0 3b c3 3e 7a 6e 37 be
       -0.18368039 0.34732687 0.38131666 -0.17913237
000150 eb 2d b3 3d 46 d3 6d 3d 6d 3c 87 bd 54 db 6d be
       0.087489925 0.058062814 -0.06603322 -0.23228198
000160 2d cb da 3d 15 7a 36 3e 43 2a fa 3d 3f 41 d7 3e
       0.10683284 0.17820008 0.12215092 0.42041966
000170 3d 34 35 be 02 bf 7e 3e 04 b6 1a be b5 59 d8 be
       -0.17695709 0.24877551 -0.15108496 -0.4225594
000180 02 81 2e be d8 ae 5d 3e 41 25 76 3d 21 5b c2 bc
       -0.170414 0.21648729 0.06009412 -0.023725094
000190 dd 5d e7 bd 24 e8 02 3d e3 60 a0 be 91 ef a8 bd
       -0.112972 0.031959668 -0.3132392 -0.08248819
0001a0 cb a3 00 3b bb a9 22 bd 53 ae a3 3e 98 c1 6d be
       0.0019628878 -0.03971265 0.31968936 -0.23218381
0001b0 30 74 16 3e 0b 49 1d 3c d2 b5 8e bd 74 28 85 be
       0.1469276 0.009599934 -0.06968273 -0.26007426
0001c0 45 be 6d 3c 64 14 1d be cc 86 fe bd c2 c3 51 3e
       0.014510696 -0.1533981 -0.12428054 0.20484832
0001d0 9b 5c a5 3c 57 d1 20 3d ff b9 0f bd 85 e5 e2 bc
       0.02018576 0.039262142 -0.03508949 -0.027697334
0001e0 24 60 dd 3c 0a 94 06 be 81 b1 f4 3d be 1f a9 3d
       0.027023382 -0.1314241 0.11947919 0.082580075
0001f0 70 4f 01 3e 87 94 60 3e fe c7 28 3d f8 47 00 bd
       0.12627959 0.21931659 0.041206352 -0.031318635
000200 68 b5 b2 bd e7 30 87 bd 61 84 10 be d8 38 61 3d
       -0.08726007 -0.06601124 -0.14112999 0.05498585
000210 d0 54 2a bd 09 9b 3f be 56 c5 93 3d de 76 62 3e
       -0.04158479 -0.18711485 0.07215373 0.22115657
000220 3a 76 fc 3d 73 96 9c 3e d7 ff 61 be e6 13 0e 3d
       0.123272374 0.30583534 -0.22070251 0.034686945
000230 fe 5d 98 bd b1 3e 32 3e 82 0f 7a bd b9 57 f9 bd
       -0.074398026 0.17406727 -0.061049946 -0.12174935
000240 6e 67 ea 3c 08 6d 3b 3d 9a c3 9b 3d 39 45 56 bd
       0.028613772 0.045758277 0.076056674 -0.05231211
000250 59 75 42 3e 34 1d 86 3e 34 5d 14 3e 6d 17 3b 3e
       0.18990077 0.26194155 0.14488679 0.18270655
000260 b3 2b 1e 3d f1 a1 2e bd dd d4 22 3e 00 aa 96 3e
       0.038615894 -0.042634908 0.15901513 0.29426575
000270 37 3e 43 3e dc 98 0d 3e e8 bf a3 3e 64 87 a5 bd
       0.19066702 0.13827842 0.3198235 -0.08082464
000280 b4 cb da 3e e5 6e 45 be 6c 7e 6b bd 00 93 21 3e
       0.42733538 -0.19280584 -0.057493612 0.15778732
000290 b1 e3 58 3e 48 1e 64 3e 52 48 64 3e e2 21 3f 3d
       0.21180607 0.22277176 0.22293213 0.046663173
0002a0 8d ac 54 3e 0c 38 f1 3d d0 86 94 3d 91 98 53 bd
       0.20768948 0.11778268 0.07252276 -0.05165917
0002b0 f5 e7 d6 3d e9 6a 95 bd b2 85 67 3c f1 83 d8 3d
       0.10493461 -0.07295782 0.014130997 0.10572041
0002c0 e4 a4 48 be 0a ee 9b bd 24 d6 bc bc 8c f9 87 3d
       -0.19594151 -0.07613762 -0.023051329 0.06639394
0002d0 6a 14 bb bc cf e8 e8 bb f7 94 51 3e c8 cb 23 3e
       -0.022836883 -0.007107831 0.20466982 0.15995705
0002e0 c5 b6 7a 3e 52 91 06 3e 62 5d b2 3e 61 ad d2 3e
       0.24483784 0.13141373 0.3483687 0.41147903
0002f0 5c fc 7a be 20 ed dd 3d 48 5f cb 3c 5c 5f c1 3c
       -0.2451033 0.10836244 0.024825707 0.023605041
000300 95 e5 14 bd e5 be ab bc 2f 18 84 bd f6 bb 4a bd
       -0.03635176 -0.020965049 -0.06449925 -0.04949566
000310 ad 83 48 be 53 82 67 3e df bf 40 bd 3b 62 45 3e
       -0.1958148 0.22608308 -0.047057983 0.19275753
000320 63 0b 0f be 21 fc 5d 3d 71 25 e0 bd 25 09 2f bd
       -0.13969187 0.054195527 -0.109446414 -0.04273333
000330 c8 23 e2 bc 46 81 4f 3e 83 91 a6 3e d1 08 02 bb
       -0.027604952 0.20264158 0.32532892 -0.001984168
000340 45 b9 81 3e 90 85 b4 be ab 91 83 be 3f 91 b8 3e
       0.25336662 -0.3525815 -0.25697073 0.36048314
000350 2e ab 00 be 07 83 7b be 9b 58 a3 bc 63 44 85 be
       -0.125653 -0.24561702 -0.019939711 -0.26028737
000360 39 06 3f bd 22 02 6a be c9 32 b4 3c 06 7e 00 be
       -0.046636794 -0.22852376 0.021996872 -0.12548074
000370 6c 10 18 3e 78 c9 f4 be 7a f3 9f 3e 1a 0b 94 3d
       0.14850014 -0.47809958 0.31240445 0.0722868
000380 b6 db aa be d5 6a 55 bc 11 ad 83 bc 41 f7 9b be
       -0.3337075 -0.013025959 -0.016073735 -0.30462077
000390 0d 89 73 3e be 82 64 be 6d 4d 44 3d 9a cf 42 3c
       0.2378275 -0.22315499 0.0479254 0.011890316
0003a0 17 f3 81 3d ce 31 a0 bc 92 57 80 bd 15 27 ee 3d
       0.06345194 -0.019554999 -0.06266703 0.11628548
0003b0 13 17 29 be 6b f1 cb bd f7 e8 10 be 8e da 40 be
       -0.16512708 -0.09958156 -0.14151369 -0.18833372
0003c0 f4 ff 07 bf 5b 1f 85 3e 9e d4 ff bd bc 3d 59 be
       -0.5312493 0.26000485 -0.124917254 -0.21214956
0003d0 7b 26 34 bd 71 76 0c 3e 8d 6b db 3c 1b a8 bc bd
       -0.04398201 0.13717057 0.026784683 -0.09211751
0003e0 44 90 4a 3e 1b f8 6f be 10 45 bb bd c4 72 07 be
       0.19781595 -0.23434488 -0.09144032 -0.13227373
0003f0 c3 4d da 3d 20 6b 62 3d d1 41 b3 3d 09 5c 95 be
       0.10659363 0.055277944 0.08752788 -0.2917178
